# 命令行
python ./models/yolo.py --line-profile --cfg ./models/yolov5s_focus_p3_PrivacyMaskingCarPlateFace.yaml

YOLOv5 🚀 2023-1-12 Python-3.7.13 torch-1.12.1+cu113 CUDA:0 (GeForce RTX 3090, 24268MiB)
                 from  n    params  module                                  arguments
  0                -1  1      1760  models.common.Focus                     [3, 16, 3]
  1                -1  1      4672  models.common.Conv                      [16, 32, 3, 2]
  2                -1  1     18560  models.common.Conv                      [32, 64, 3, 2]
  3                -1  1     18816  models.common.C3                        [64, 64, 1]
  4                -1  1     73984  models.common.Conv                      [64, 128, 3, 2]
  5                -1  2    115712  models.common.C3                        [128, 128, 2]
  6                -1  1    295424  models.common.Conv                      [128, 256, 3, 2]
  7                -1  3    625152  models.common.C3                        [256, 256, 3]
  8                -1  1    164608  models.common.SPPF                      [256, 256, 5]
  9                -1  1     66048  models.common.Conv                      [256, 256, 1, 1]
 10                -1  1         0  torch.nn.modules.upsampling.Upsample    [None, 2, 'nearest']
 11           [-1, 5]  1         0  models.common.Concat                    [1]
 12                -1  1    329216  models.common.C3                        [384, 256, 1, False]
 13                -1  1     33024  models.common.Conv                      [256, 128, 1, 1]
 14                -1  1         0  torch.nn.modules.upsampling.Upsample    [None, 2, 'nearest']
 15           [-1, 3]  1         0  models.common.Concat                    [1]
 16                -1  1     82688  models.common.C3                        [192, 128, 1, False]
 17                -1  1    147712  models.common.Conv                      [128, 128, 3, 2]
 18          [-1, 13]  1         0  models.common.Concat                    [1]
 19                -1  1    296448  models.common.C3                        [256, 256, 1, False]
 20                -1  1    590336  models.common.Conv                      [256, 256, 3, 2]
 21           [-1, 9]  1         0  models.common.Concat                    [1]
 22                -1  1   1182720  models.common.C3                        [512, 512, 1, False]
 23      [16, 19, 22]  1     18879  Detect                                  [2, [[10, 13, 16, 30, 33, 23], [30, 61, 62, 45, 59, 119], [116, 90, 156, 198, 373, 326]], [128, 256, 512]]
YOLOv5s_focus_p3_PrivacyMaskingCarPlateFace summary: 248 layers, 4065759 parameters, 4065759 gradients

 time (ms)     GFLOPs     params  module
     22.44       0.37       1760  models.common.Focus
…
